Prima Diabetes/diabetes.pt (torch, 5471 bytes, 6 tensors)

weight f4 [20, 8]
00000000: 80d1 5fbe ede2 3f3e 0bc2 433e 5349 1cbe
00000010: a88e 903d 3889 3bbe 68ad 583e 2da4 88bd
00000020: 6124 2f3e c8e4 31be 95ba 8f3e ffb6 0e3e
00000030: 68d6 8fbe 9f4d dfbc f683 bb3e 7c53 ca3e
00000040: 1b3b 243e 29fb 223e e6a7 983d 75da d83c
00000050: 3c1e 9e3e abbf 083b 0773 13bf 690a 1fbd
00000060: 6170 383f 3bea 85bd 28df 8b3e 3467 bbbd
00000070: b324 24be 168d f13c 9136 45bf a932 873d
00000080: e8f7 a3be 5934 f8bb 1f1f 83be 78d5 0a3e
00000090: 1a97 22be f1c9 d3bd 59df 9fbe f234 7cbe
000000a0: b748 0dbf b1a7 183d f8d6 20be c098 0b3d
000000b0: 2a2c fb3c 9290 353e 632c a73f c6b2 2bbe
000000c0: a166 efbe 7d41 233e d7f2 9ebd 6c37 03bf
000000d0: b69b 0e3e 451c e33d d7b5 c7bf 6f51 7dbe
000000e0: e039 713f 4915 b7bd 6a14 b8be 7556 57bf
000000f0: 00a5 a8be 40e7 3cbe 6105 983f 05de 2e3f
00000100: 20ef bd3c 7087 d6bd 603f 74bc 0d33 a4be
00000110: be17 eabd 2fa8 47be 0391 953e 644a aa3d
00000120: 5bfe 453f 19e0 cf3c 6324 80bd 3426 913c
00000130: 34bb 573d 36ac 683e 8f72 cb3f 20c0 39be
00000140: da99 e6bd b0c2 f33b d1e0 eabd 202c 283d
00000150: 0f11 3a3e e604 9cbe d0dd a4be 08af 443e
00000160: aed6 b23b de75 92bc bfb8 7c3e 0a1b b5be
00000170: 5ca5 2a3d 617b afbd c0db 9dbe 35d4 d9be
00000180: 9415 07be b425 55be 3b37 bebd 7a95 fa3e
00000190: 0222 6e3d 43d3 b7be 107d 7d3f 1660 d63e
000001a0: d8e7 103d 02e5 2a3e a4bb 55be 0d27 09be
000001b0: 66a5 763e bac0 a9be 4b88 243f d70b 683e
000001c0: 03b1 233f 78d5 20bf bfcd 3abe 023d 17be
000001d0: daeb eebe 47ca bb3e fd85 d5be 8529 003f
000001e0: e765 a3be 35a7 a93e bce6 cfbd 8c95 95bd
000001f0: 2627 82bc f329 10be cf11 273f 3d86 ca3c
00000200: f1e5 923d 220f 6b3d d0c5 a4bd d418 68be
00000210: aaaf a63d 3291 473e b3e7 d33e 864b c23e
00000220: 21b1 2d3f 77cc 0d3e f2bf ffbb 4510 0bbf
00000230: de55 fdbd a70d 3f3d 6f18 903e 1444 d63d
00000240: d4fb 1bbf e3b0 603e 84f6 963e 5aea 36be
00000250: 66ee bdbd 7669 11be d94e 6a3f 4340 f4be
00000260: 6a5b 08bf c646 693e 3b9a a4be 5a68 adbd
00000270: 0019 0a3e a00d c9bd 8f1d 47bf 5078 63be
-0.21857262 0.18738909 0.1911699 -0.15262346 0.070584595 -0.18314064 0.21159899 -0.06671939
0.17103721 -0.1737243 0.28072038 0.13936995 -0.28093266 -0.027258692 0.36624116 0.3951682
0.16038172 0.15916122 0.07453899 0.026471356 0.30882442 0.0020866196 -0.5759739 -0.038828287
0.72046477 -0.065388165 0.27318692 -0.09150544 -0.16029625 0.02948622 -0.77036387 0.066014595
-0.32025075 -0.0075745997 -0.2560968 0.13557994 -0.15877953 -0.10341252 -0.31225088 -0.24629572
-0.5518908 0.037269298 -0.15707004 0.03408122 0.030660708 0.1773093 1.3060421 -0.16767415
-0.46757987 0.1594295 -0.07761162 -0.5125644 0.13926587 0.11089376 -1.5602368 -0.24738096
0.94228935 -0.08939607 -0.35953075 -0.841163 -0.32938385 -0.1844759 1.1876642 0.68307525
0.023185313 -0.104750514 -0.014907688 -0.320702 -0.1143031 -0.1949775 0.29212198 0.0831497
0.7734124 0.025375413 -0.0625694 0.017718412 0.052668765 0.22721943 1.5894336 -0.18139696
-0.112598136 0.00743898 -0.114686616 0.041057706 0.1817057 -0.30472487 -0.3220048 0.19207394
0.0054577207 -0.01787847 0.2467985 -0.35372192 0.041661605 -0.085684545 -0.30831718 -0.42544714
-0.13191825 -0.20815164 -0.09287878 0.48942167 0.0581379 -0.35903367 0.99018955 0.41870183
0.035377353 0.16688922 -0.2087236 -0.13393803 0.24086532 -0.3315485 0.64270467 0.22660767
0.63941973 -0.6282573 -0.18242548 -0.14769366 -0.46664315 0.36677763 -0.41703787 0.50063354
-0.31913683 0.3313538 -0.10151431 -0.073039144 -0.015887808 -0.14078502 0.6526155 0.024722213
0.07172764 0.05738748 -0.08045542 -0.22665721 0.08138974 0.19488981 0.4138771 0.37948245
0.678484 0.13847528 -0.007804864 -0.543217 -0.123698935 0.04664388 0.2814364 0.104622036
-0.60931134 0.21942477 0.29484951 -0.17862836 -0.092739865 -0.14200386 0.9152656 -0.47705278
-0.53264487 0.22780904 -0.32148919 -0.08467169 0.13486099 -0.09817052 -0.7777948 -0.22213864

bias f4 [20]
00000000: 6852 75bd 1b9d 8dbf 0793 3f3f 7ded bc3f
00000010: 3faf abbe cf9d a1be db40 b53f 2ffa 953f
00000020: 8b2f 13be 1e37 1bc0 693c 22bc 746c 0240
00000030: 46c1 a33e e9a3 4cbf 478d b9bd 6f39 37bf
00000040: bd12 adbf d35d b8bf 4339 e1bf a039 893e
-0.05989304 -1.106357 0.7483372 1.4759976 -0.3353214 -0.3156571 1.4160417 1.1716975
-0.14373605 -2.425239 -0.009902098 2.0378695 0.31983393 -0.7993761 -0.0906015 -0.7157201
-1.3521343 -1.4403633 -1.75956 0.26801777

weight f4 [20, 20]
00000000: 9887 38bd a66a 0cbe de67 9a3d b568 f83d
00000010: b781 43be 3589 413e 8355 a9bb 38ef d93e
00000020: b467 523e e5fc e4bd 6881 6a3e e9c3 c73d
00000030: cb11 2b3e 8222 00bb bb09 ac3d 3269 603c
00000040: a850 3b3e 4159 44be 55a6 9e3c ead6 003e
00000050: 945d c43d a52d 11bd 0c4a d03d 357b 143e
00000060: 1305 1abe bc40 863d c477 a03d e1db 2b3e
00000070: 1171 18be 87b2 a13d f161 313e 0348 6b3d
00000080: 2b1e 4a3b 0eba e7bd f0a9 9bbe 1ae9 843d
00000090: 9453 2d3b 6b09 ce3d 137f 58be ca4c 923d
000000a0: a7cd 3fbe f21a 863e 5305 243c 9ff5 82be
000000b0: cac1 823e 7f7b bb3b 01bc 403e 5275 47bd
000000c0: 181f 1a3e ce35 933d c939 c2bd f006 d4bd
000000d0: be09 973d d21d 32bd 89bb 9d3e 7ed0 3f3e
000000e0: f407 473e 9ded 7d3e 4f47 61bc a1c3 733d
000000f0: 9f00 f2ba 4cc3 fb3d bbcf afbd f423 68be
00000100: dba1 fd3d c885 97bc d266 423c 56aa 523e
00000110: 0ebc 4e3e ee46 773d 5d56 93bd 7421 df3d
00000120: 0e04 7c3d d632 0bbe e8bb a23e 119b 31bc
00000130: 9578 dfbd ee58 bebd efc3 3c3d 198d 063d
00000140: 027d dbbc f5fb 99bd 6278 f43c 49b3 203e
00000150: 793a 7abe 928f 4d3b 09ca 773d 4b44 ed3c
00000160: f83c 22be 52c7 fb3d 6ff7 31be 2a66 953e
00000170: d2b7 89bd 8efd 09bc 2cb8 1abe c92d 2c3d
00000180: 28ab 243d 45ee 933d 0eaf 23be 3a12 cc3c
00000190: 8d29 153d e8e2 67be 0bd0 223e 467c dabd
000001a0: 9b22 f53d 3fb6 203f fbf9 29be f6d6 4ebc
000001b0: ea8e b2bd d0dc fcbd 23d9 103d a865 96bf
000001c0: 3769 25bf e7e3 abbd 9466 bd3d 0961 cfbd
000001d0: 9eb6 0c3e f7a8 7cbe 2907 35be d8f0 b8be
000001e0: 6a66 c7bd acc7 a5bd 5987 39be 3c99 5c3e
000001f0: 9c65 ba3d ecd1 03bd e0bd 523e bc8e febd
00000200: aafd bcbd 04fd 48be a8f2 483d 100d 1bbd
00000210: d8aa 02be de77 2dbe 0e33 15be 5e13 d4bd
00000220: b14b 02be 30fc 283d 0f7d 4bbe a846 4d3e
00000230: 94e0 263e 99bd 813b 05e1 b63c 0c72 e3be
00000240: 37de e2bc c603 423d dc87 ef3c fc9c 19be
00000250: 50fd 5e3d 61bc 64be 6e03 4f3e f972 9dbe
00000260: bd3c 11bc 6fbc 353e d62c eebd 4315 53be
00000270: 3efd 06be 1f4a b1be 26fc 19be 665c 6d3d
00000280: 5e8a d73d 3ea1 9f3c b746 70be 1bc4 123e
00000290: faa4 863d 0ff1 2b3e 0c53 b93c 16b7 f93b
000002a0: 4029 41bb 9ea9 d3be 37b6 5dbe 160a acbe
000002b0: 8d0c b8bd 1c5f 953d bce0 11be 0a76 533d
000002c0: c011 a5bd b088 e73d 8a75 7a3e f550 313e
000002d0: e2a1 2d3e d7e1 0bbe bb4b a6bd 99ba 31be
000002e0: dcf9 2ebd cfc7 c2bd ac6f 13be c542 1a3d
000002f0: c89d 963d 8eaf b43e bb9c 393e c276 0ebf
00000300: 240f 763d c9f7 14be 6599 a9be b537 edbc
00000310: de14 6a3e 00ce 053d bfe5 4e3d 4e4c f03d
00000320: 08b1 47be dcb6 2b3d 23fb 073e fa02 18bd
00000330: 0014 e03c ff03 293e 9215 493e 39e4 44be
00000340: f09e 86bd 18e1 483e c0c9 33be e844 b8bd
00000350: b6f0 3cbe 5cd5 193d 4577 f03d d079 09be
00000360: 32d2 ae3d 4906 6b3e fe77 013e 6b64 a03d
00000370: f61a dfbd d07f 8bbe 8871 3b3d 118f 04be
00000380: 78d7 71be 1e0f 80be ccfc e0bb 8765 65be
00000390: 868a 15be 0910 3cbe 5d4f a63c f2a2 1cbd
000003a0: 9e32 56be 2e6b abbd 9034 5d3e b2e4 a33d
000003b0: 0320 4d3d 9dab 82be 902e 91be d9aa fabd
000003c0: bd84 1e3e b095 a7be c42d 23be 2515 293f
000003d0: 15e4 933c 9979 b63e 4c3d b0bf e3ec 0140
000003e0: bcd0 81bd 38c9 2ec0 224b 76be 256f 883e
000003f0: 08ff b83f 426e 86bf 91a7 34bf 6cef 41be
-0.045051187 -0.13712558 0.07539342 0.12129346 -0.19092451 0.18899997 -0.0051676645 0.42565322
0.20547372 -0.11181048 0.22900927 0.09754164 0.16706006 -0.0019551818 0.084002934 0.0136969555
0.18292487 -0.19174673 0.019366423 0.12581983 0.09588161 -0.03544392 0.10170373 0.14500125
-0.15040998 0.06555316 0.078353435 0.16783096 -0.14886881 0.078953795 0.17322518 0.057441723
0.0030840735 -0.11314784 -0.3040309 0.06489773 0.0026447522 0.1006039 -0.21142225 0.071435526
-0.18730794 0.26192433 0.010011035 -0.2557802 0.25538474 0.005721509 0.18821718 -0.04869587
0.15050924 0.07187997 -0.09483678 -0.10352886 0.07374905 -0.04348547 0.3080714 0.18731877
0.19436628 0.24797674 -0.013749911 0.05951274 -0.001846332 0.12293109 -0.08584543 -0.22669965
0.12384387 -0.018496409 0.011865335 0.2057279 0.20188925 0.06037038 -0.07194207 0.108950526
0.061527304 -0.13593611 0.31783986 -0.010840193 -0.10911671 -0.09294306 0.046085294 0.032849405
-0.026793007 -0.0751876 0.02984256 0.15693392 -0.24436368 0.0031366092 0.06049541 0.028963229
-0.1584357 0.12293877 -0.17379545 0.29179507 -0.06724514 -0.008422269 -0.15109318 0.04203585
0.04020229 0.07223181 -0.15984747 0.024911035 0.03641658 -0.22645152 0.15899675 -0.106682345
0.11969491 0.62778085 -0.16599266 -0.012624493 -0.08718665 -0.12346804 0.035363328 -1.1749773
-0.6461367 -0.08393078 0.09248081 -0.1012593 0.13741538 -0.2467383 -0.17678513 -0.3612125
-0.09736331 -0.08094725 -0.18118037 0.2154283 0.09101412 -0.03218262 0.20580244 -0.12429568
-0.0922807 -0.19627768 0.04905954 -0.037854254 -0.12760484 -0.16940257 -0.14570257 -0.103552565
-0.12724186 0.04125613 -0.19871925 0.20046484 0.16296607 0.0039593694 0.022324095 -0.44422948
-0.02769385 0.04736688 0.029239587 -0.15001291 0.054440796 -0.22337486 0.20216152 -0.3075178
-0.008864579 0.17747663 -0.116296455 -0.2061358 -0.13182542 -0.34626862 -0.15037593 0.057949446
0.10524438 0.019486066 -0.23464476 0.14332621 0.065744355 0.16791175 0.022622608 0.0076207025
-0.002947405 -0.41340345 -0.2165154 -0.33601445 -0.08986769 0.07293531 -0.14245886 0.051626243
-0.08060026 0.11305368 0.244589 0.17316039 0.16956285 -0.1366037 -0.08119913 -0.17356338
-0.042718753 -0.09510767 -0.14398068 0.037661333 0.07354313 0.35290188 0.18126194 -0.5564996
0.060073033 -0.14547648 -0.33124843 -0.028957227 0.22859523 0.03266716 0.05051207 0.11733304
-0.19501126 0.041922435 0.13279395 -0.037112214 0.027353287 0.1650543 0.19637135 -0.19227685
-0.06573284 0.19617116 -0.1755743 -0.08997518 -0.18451199 0.03755699 0.11741499 -0.13425374
0.08536185 0.22951616 0.1264343 0.07831653 -0.10893814 -0.2724595 0.04576257 -0.129452
-0.23617351 -0.25011533 -0.0068660732 -0.22402011 -0.14603624 -0.18365492 0.020301515 -0.038241334
-0.20917746 -0.08370052 0.21602082 0.080026045 0.050079357 -0.25521556 -0.28355837 -0.12239618
0.15480323 -0.3273139 -0.15935427 0.6604789 0.018053094 0.35639647 -1.3768706 2.0300834
-0.06338641 -2.7310314 -0.24052098 0.26647297 1.4452829 -1.0502398 -0.70568186 -0.18938988

bias f4 [20]
00000000: 862b 7b3f 5bcf 723f a53b 84bf b68f 983c
00000010: 919c 1b3f 04f2 f4bf 9ad0 083e e31d 38bf
00000020: 2471 2b3f 254b 27bf e49d 27bf 2f91 ba3d
00000030: 3a1b be3f 7cad aabf b863 73bf f07c 06bf
00000040: 731a 0cbf 98cb 833d 429f 1bbe 2362 6abd
0.98113286 0.9484765 -1.0330702 0.018623214 0.60785776 -1.9136357 0.13360825 -0.71920604
0.66969514 -0.65349036 -0.65475297 0.09109723 1.4852059 -1.3334193 -0.95074034 -0.5253439
-0.5472786 0.06435317 -0.15197471 -0.057222497

weight f4 [2, 20]
00000000: eab6 0c3e e715 513e a2aa 07bb 04ba a13d
00000010: e406 03be 6891 9bbe 42e6 82bd dfeb 55be
00000020: 5481 053e b780 e93c 5ab1 8e3d 43af 9cbd
00000030: 0588 d33d 5f3c 9bbe 82e9 bdbc c7e7 01bf
00000040: a096 fa3b 5331 47bc 0e67 f2bd 7c4a 1dbc
00000050: a68e 55be 11d9 913b f401 093e 570c c53d
00000060: d8e3 3dbe 5f21 6b3e b466 1b3e 648c 303e
00000070: 9133 4dbe c7a4 5e3e edc1 553e 6f28 87bd
00000080: 45f4 fabe 53ae fa3d 1c82 4d3e cd69 fb3e
00000090: 29e8 583e a65c 0ebe 846e 333e 921a d83d
0.13741651 0.20418511 -0.002070107 0.07896808 -0.12795597 -0.30384374 -0.063915744 -0.20890759
0.13037616 0.028503759 0.06967421 -0.07650616 0.10328678 -0.30319497 -0.023182634 -0.5074429
0.0076473504 -0.012157756 -0.11836062 -0.009600278 -0.20855197 0.004450925 0.13379651 0.09621494
-0.18543947 0.22961949 0.15175897 0.17241055 -0.20039202 0.21742545 0.20874758 -0.06599509
-0.49014488 0.12240281 0.20069164 0.49104157 0.21182312 -0.1390253 0.17522627 0.10551943

bias f4 [2]
00000000: d6af 383f e894 53bf
0.72143304 -0.8264909
